Onnx-Inference/CaloML_withCPP/CaloML/HGM_3.model-03-12-2025.onnx (onnx, 109733 bytes, 10 tensors)

layer0 f4 [64, 15]
0	0x3e3aaa78	0.18229091
1	0xbbeb2f1f	-0.007177248
2	0xbb6abf56	-0.0035819612
3	0x3fbae434	1.4600892
4	0x3ec41fd9	0.38305548
5	0x3ec2bd35	0.38034979
6	0xbe884790	-0.26617098
7	0xbea3f3ef	-0.32022044
8	0xbe7a9dfb	-0.24474327
9	0x3ce08e8c	0.027411722
10	0xbd4a2304	-0.0493498
11	0xbe15d779	-0.14632978
12	0xbbad719a	-0.0052930834
13	0xbc1c0230	-0.009522006
14	0xbb7d6912	-0.0038667363
15	0x3d4aa5f9	0.04947469
16	0x3c49a5f5	0.012307634
17	0x3d1cb843	0.038261663
18	0xc0201d47	-2.501787
19	0xbd8fe320	-0.070257425
20	0xbd09e8cb	-0.033669274
21	0x3d838f97	0.06423872
22	0x3e2878b1	0.1645229
23	0xbe1c9ce4	-0.15294224
24	0x3bc16b7f	0.005902707
25	0xbd0d8a1e	-0.034555547
26	0xbd3c7e8e	-0.04601913
27	0xbd0b616a	-0.03402845
28	0x3d25d4b0	0.040486038
29	0xbda3e43c	-0.080025166
30	0xbe077f20	-0.13232088
31	0x3c62d33a	0.013844306
32	0x3e27df6b	0.16393821
33	0x3fac158b	1.3444074
34	0x3c5088fb	0.012727971
35	0x3e0bef57	0.1366552
36	0xbe4fda3a	-0.2029809
37	0xbc1d32d9	-0.009594643
38	0xbea19283	-0.31557092
39	0x3d31ca1b	0.043405633
40	0x3d59c9cf	0.053170975
41	0x3e145d9a	0.14488831
42	0x3c68ac22	0.014201196
43	0xbbd7d840	-0.0065870583
44	0x3d08a536	0.033360682
45	0x3e5e39e9	0.21701778
46	0x3dac94fc	0.08426854
47	0x3e1a4036	0.15063557
48	0x3f26ef42	0.6520883
49	0xbdec3b1f	-0.11534714
50	0xbd74ee8b	-0.059797805
51	0x3e5f9f98	0.21838224
52	0xbd818bd3	-0.063254975
53	0xbe327ffe	-0.17431638
54	0x3dc67bea	0.096916035
55	0x3c02bab2	0.007979082
56	0x3dc0aa41	0.09407473
57	0x3c863566	0.016382884
58	0xbd38674b	-0.045020383
59	0x3c8e44a2	0.017366711
60	0xbe0f7227	-0.1400839
61	0xbec8d8d4	-0.39227927
62	0x3db68482	0.089119926
63	0xbf82f21b	-1.0230135
64	0xbd55a1a4	-0.052156106
65	0x3d52b2c3	0.05144001
66	0x3e87bce9	0.26511315
67	0xbe270ab1	-0.16312672
68	0x3dfa0652	0.12208237
69	0x3c004ca7	0.007830775
70	0xbb515b02	-0.0031945114
71	0xbdd7eaf5	-0.10542861
72	0xbbb6b3bb	-0.0055756248
73	0x3d01142e	0.031513385
74	0xbd091aee	-0.033472948
75	0x3e3b711a	0.18304864
76	0x3c1c3467	0.009533978
77	0x3c802bbf	0.01564586
78	0x3ede2cee	0.43393654
79	0xbd22184f	-0.039573964
80	0x3ec682a6	0.38771552
81	0xb8b2ddf0	-8.5290405e-05
82	0xbf050ff9	-0.519775
83	0x3dfeb363	0.12436559
84	0xbce05dde	-0.02738851
85	0xbcfd10b5	-0.030891756
86	0x3dd11b9d	0.10210345
87	0xbcd3a696	-0.02583627
88	0x3c819d03	0.01582194
89	0xbd03c537	-0.0321705
90	0xbe194085	-0.14966018
91	0x3c11b152	0.008892374
92	0x3d27083d	0.04077934
93	0x401982d7	2.3986108
94	0xbcba4058	-0.02273576
95	0xbdd95656	-0.106121704
96	0xbe928f16	-0.2862479
97	0x3e05ccc2	0.1306639
98	0x3dca5544	0.098795444
99	0x3d923838	0.07139629
100	0x3d88d391	0.06680978
101	0x3dc831c0	0.09775114
102	0xbc15b6f2	-0.009137856
103	0xbb38cfc5	-0.0028200012
104	0xba4d7d59	-0.00078388077
105	0x3e87c035	0.2651383
106	0x3d66c6b7	0.056341853
107	0x3e5ca242	0.21546271
108	0x3fe35067	1.7758912
109	0xbe267888	-0.16256917
110	0x3db9350d	0.09043322
111	0x3b2d9a31	0.002648961
112	0xbe4217bc	-0.18954366
113	0xbe014575	-0.12624152
114	0xbd918b55	-0.071066536
115	0xbe42f3ae	-0.19038269
116	0xbcc5bcb4	-0.024137832
117	0x3cffbf41	0.031219127
118	0x3c96f208	0.018425956
119	0xbce90ac7	-0.028447522
120	0x3df57f14	0.11987129
121	0xbb9d9e7f	-0.004810154
122	0xbcdc3ad8	-0.026883528
123	0xbf3c7666	-0.7361816
124	0x3f07aba9	0.5299631
125	0xbe84489c	-0.25836647
126	0xbd2f5b6d	-0.0428118
127	0xbdffdacd	-0.12492905
128	0xbd487ed3	-0.048949074
129	0x3c07fd3e	0.008300124
130	0x3dc408e0	0.09572005
131	0x3ed74b35	0.42049566
132	0xbdaa5615	-0.083172
133	0xbce6c8e2	-0.02817196
134	0xbc4c9cf1	-0.01248859
135	0xbd908054	-0.07055727
136	0x3c6c10f9	0.0144083435
137	0x3e957a25	0.2919475
138	0x3f927b2b	1.1443838
139	0x3eb162f5	0.3464581
140	0xbe4a65de	-0.19765422
141	0xbb457c0e	-0.0030133757
142	0xbe78ae0b	-0.24285142
143	0xbd8e4463	-0.069466375
144	0xbdaaf8e4	-0.08348253
145	0xbaf9f802	-0.0019071104
146	0x3c8b9f00	0.01704359
147	0x3d43fb4b	0.047847074
148	0x3daee702	0.08540155
149	0xbd9c0357	-0.076178245
150	0x3e6f881e	0.23391768
151	0x3c44610f	0.011986031
152	0xbe68cac4	-0.22733599
153	0xbd305617	-0.04305085
154	0x3c3b7675	0.011441817
155	0xbc41f3e1	-0.01183793
156	0x3e04fc20	0.12986803
157	0x3de8daf9	0.11369891
158	0x3c5041d6	0.012711009
159	0x3d72a36a	0.059237875
160	0xbd32876c	-0.04358618
161	0x3dcfc805	0.101455726
162	0xbd920396	-0.0712959
163	0x3d6a269b	0.057165723
164	0xbd784867	-0.060615923
165	0x3df43dc1	0.11925841
166	0xbc29a4d2	-0.010354238
167	0xbddb5eb2	-0.10711421
168	0x401d825c	2.4610815
169	0x3ef9ecf8	0.48813605
170	0xbe94ece6	-0.2908699
171	0xbda76c8a	-0.08174999
172	0x3e85364d	0.2601799
173	0x3cb94adf	0.02261871
174	0x3d533aa6	0.051569603
175	0xbd5e9fb8	-0.05435154
176	0x3d287775	0.041129548
177	0x3d880d6c	0.06643185
178	0x3c114b5a	0.008868063
179	0x3c9132ed	0.017724479
180	0x3da83528	0.08213264
181	0xbc6b5af2	-0.014364945
182	0x3e3b742e	0.18306038
183	0xbfb82279	-1.438552
184	0xbd0ca5b9	-0.034337733
185	0x3df379c6	0.11888461
186	0x3d0603fc	0.032718644
187	0xbd954a02	-0.072895065
188	0xbdb601fb	-0.088870965
189	0x3d98cd56	0.0746104
190	0x3dde9e11	0.108699925
191	0xbd0f076c	-0.034919187
192	0xbe22a860	-0.15884542
193	0xbdf21707	-0.11820798
194	0x3c4a3468	0.012341596
195	0xbe94c547	-0.2905676
196	0x3b2f6214	0.002676134
197	0x3db4f2c0	0.088353634
198	0xbd821b5a	-0.06352873
199	0x3a4fcb62	0.000792673
200	0xbd4242a0	-0.04742682
201	0x3b62567a	0.0034536407
202	0x3ed3c528	0.41361356
203	0xbdbf8b4f	-0.09352743
204	0x3c19a7f1	0.009378419
205	0xbddd8872	-0.108170405
206	0x3e86c8da	0.26325113
207	0x3d961e30	0.073299766
208	0xbcd59d1a	-0.026075888
209	0xbdb76c02	-0.08956148
210	0xbd2e82c7	-0.042605188
211	0xbc7a26cf	-0.015268042
212	0x3e261ca2	0.1622186
213	0xc0670bb3	-3.610089
214	0x3f246cde	0.6422862
215	0x3d5b749e	0.05357801
216	0x3dbe1bca	0.09282644
217	0xbda0afde	-0.07846044
218	0x3e5bd402	0.21467593
219	0x3d77880e	0.060432486
220	0xbb727581	-0.0036996307
221	0xbd40fd04	-0.047116295
222	0x3bec1d16	0.0072056158
223	0xbc81509c	-0.015785508
224	0xba58c53e	-0.00082691375
225	0x3e982151	0.29712918
226	0x3d04ac1b	0.032390695
227	0xbe3191e3	-0.17340808
228	0xbf97f2e5	-1.1871
229	0xbb88d61a	-0.0041759135
230	0x3db5eab3	0.08882656
231	0xbd21dc19	-0.039516542
232	0x3d90cb3c	0.07070014
233	0x3d53e77a	0.051734425
234	0xbdc8fcca	-0.09813841
235	0xbd077aba	-0.033076026
236	0x3e259cc2	0.1617308
237	0x3dd2bb81	0.1028967
238	0xbd8a2751	-0.0674578
239	0x3db9ed97	0.0907852
240	0x3de03540	0.10947657
241	0xbbd3bfb0	-0.00646206
242	0x3c94310b	0.018089792
243	0x4031f5e4	2.780633
244	0xbe784b9f	-0.24247597
245	0x3cc939a3	0.024563616
246	0xbd28d739	-0.041220877
247	0xbe97de4d	-0.2966179
248	0x3b000989	0.0019536933
249	0x3cf3dee2	0.029769365
250	0xbe42f9d2	-0.19040611
251	0x3d1aef58	0.037825912
252	0xbe7f6b44	-0.24943262
253	0xbdb4d38d	-0.088294126
254	0x3d14442d	0.03619783
255	0x3c498a94	0.012301106

activation1 f4 [64]
0	0x3e98eb08	0.29866815
1	0x3ed26a1b	0.41096577
2	0x3e93b1aa	0.28846484
3	0x3e3cf269	0.18451847
4	0xbe7f14b9	-0.24910249
5	0xbedb30b7	-0.42810604
6	0x3eb23fd3	0.3481432
7	0xbd4a38da	-0.049370624
8	0xbc9f3e4c	-0.019438885
9	0x3e43b9fe	0.19113919
10	0x3eec6c8a	0.4617656
11	0x3db50d44	0.08840421
12	0x3e634ace	0.22196504
13	0x3e5b6191	0.21423937
14	0xbdf7ce27	-0.12099867
15	0x3ee91dd2	0.45530564
16	0x3d36e231	0.044649307
17	0x3e4cb0fb	0.19989388
18	0x3eb3c4a4	0.35110962
19	0x3eb55eed	0.35423985
20	0x3ed7edf2	0.42173725
21	0x3ec0df51	0.37670377
22	0x3ee27ff9	0.4423826
23	0x3eb3957b	0.35074982
24	0x3d40628e	0.04696899
25	0x3f0669ee	0.52505386
26	0x3dd0b2b1	0.10190333
27	0xbdd4dcb1	-0.10393656
28	0x3e5c78b0	0.21530414
29	0xbdd4f72e	-0.10398708
30	0xbc9ca2ea	-0.019120652
31	0x3ef3e0dc	0.47632492
32	0x3d4ebfd5	0.050475914
33	0x3eef48db	0.46735272
34	0x3e1cc2d2	0.15308693
35	0xbe720f7c	-0.2363872
36	0x3d8e3b40	0.06944895
37	0x3ed07695	0.4071547
38	0x3e824dad	0.25449887
39	0x3ec68ca1	0.38779166
40	0xbe398472	-0.1811693
41	0x3e89c80d	0.2691044
42	0xbe7393de	-0.23786876
43	0x3e7b5035	0.24542315
44	0x3ec6aed7	0.38805267
45	0xbdff13e2	-0.12454964
46	0xbe035492	-0.1282523
47	0x3f067633	0.5252411
48	0x3e0222b1	0.12708546
49	0x3d8497b7	0.0647425
50	0xbe6f6c0c	-0.2338106
51	0x3e8475c8	0.2587111
52	0x3e851c3f	0.25998113
53	0xbeb2dd3e	-0.3493442
54	0x3e6a6510	0.22890115
55	0xbe2046ca	-0.15652004
56	0x3aa1ce2c	0.0012344769
57	0x3e51dbe0	0.20494032
58	0x3cfe5d39	0.031050311
59	0x3e258991	0.16165759
60	0x3e16a5aa	0.14711633
61	0xbc8453fa	-0.016153324
62	0xbe9457c0	-0.28973198
63	0x3dbd596f	0.09245574

layer1 f4 [64, 64]
0	0xbd7f1404	-0.062274948
1	0xbe67c124	-0.22632271
2	0x3db21c49	0.08696801
3	0x3d862922	0.06550814
4	0xbd510172	-0.05102677
5	0xbc95db5b	-0.018293073
6	0xbca1815d	-0.019715006
7	0x3c493866	0.012281513
8	0xbe0b0077	-0.13574396
9	0x3c3ae901	0.0114080915
10	0xbad2482b	-0.0016043236
11	0x3d2529a6	0.040322922
12	0xbd5219df	-0.051294204
13	0x3d5604ca	0.05225066
14	0xbd86672a	-0.06562646
15	0xbdba2667	-0.09089356
16	0xbd6dab6b	-0.058024805
17	0x3dc48abe	0.095967755
18	0x3d7d0cb1	0.06177968
19	0x3e86cc40	0.26327705
20	0x3da6ac86	0.08138375
21	0xbe9be873	-0.30450782
22	0xbe247057	-0.16058479
23	0xbd074577	-0.03302523
24	0x3c2ab5fe	0.010419367
25	0x3e060c2e	0.13090584
26	0xbc9a2b90	-0.0188196
27	0x3e245f9f	0.16052102
28	0x3e6e0a5b	0.23246138
29	0xbcc26faf	-0.023734896
30	0xbd882a04	-0.06648639
31	0xbcec7163	-0.02886266
32	0xbd81121e	-0.06302284
33	0x3e905782	0.28191763
34	0xbd89d200	-0.067295074
35	0xbe01bdd0	-0.12670064
36	0x3cd96008	0.02653505
37	0x3d850ccf	0.06496584
38	0x3deda4fd	0.11603735
39	0x3d6ac807	0.057319667
40	0x3d28bb12	0.04119403
41	0x3d2830c9	0.04106215
42	0x3dc5f9da	0.09666796
43	0xbe76fadd	-0.24119134
44	0xbc4298fd	-0.011877296
45	0xbd8a0b5c	-0.06740448
46	0x3b337457	0.0027382576
47	0x3dd584b2	0.104257
48	0x3dace7eb	0.08442672
49	0xbdba4501	-0.09095193
50	0x3c939d2f	0.018019287
51	0x3bb44233	0.0055010556
52	0xbe5f984a	-0.21835437
53	0x3d19c9a5	0.03754582
54	0x3d0631cb	0.03276233
55	0x3db459e0	0.08806205
56	0xbe24330b	-0.16035096
57	0xbc873697	-0.016505523
58	0x3de7241d	0.11286185
59	0x3d079d2f	0.033108886
60	0x3d483d10	0.04888636
61	0x3d6e7e63	0.058226
62	0x3bcdfc8f	0.006286211
63	0xbd26b1d6	-0.04069694
64	0x3df38c7d	0.118920304
65	0xbc762a09	-0.01502467
66	0x3d16db4c	0.03683023
67	0xbd9443a5	-0.07239465
68	0xbe30ffdf	-0.17285107
69	0xbdc30161	-0.095217474
70	0x3d5d77d7	0.054069366
71	0x3dcf163c	0.10111663
72	0xbcdd9513	-0.027048623
73	0x3cb53b92	0.022123132
74	0x3dc62c20	0.09676385
75	0x3cbd309f	0.023094473
76	0x3c443c69	0.0119772935
77	0x3d22bbd6	0.039729916
78	0xbdae1aa5	-0.08501176
79	0x3d361359	0.044452045
80	0xbcc716b7	-0.024302823
81	0x3da2a64d	0.079418756
82	0x3de27553	0.11057534
83	0x3c52d0e9	0.012867191
84	0x3b024a09	0.0019880554
85	0x3d9ee4cd	0.07758484
86	0x3d6e73f4	0.05821605
87	0xbd3720e4	-0.0447091
88	0xbd832bee	-0.06404863
89	0x3dc10658	0.09425038
90	0xbe0c0324	-0.13673073
91	0xbd95d581	-0.07316113
92	0x3ce6fee0	0.028197706
93	0x3d18a249	0.037264142
94	0x3cf19d85	0.029494056
95	0x3d188274	0.037233785
96	0xbc28c682	-0.010301234
97	0xbcc305a6	-0.023806404
98	0xbd8f421f	-0.069950335
99	0xbdb444c0	-0.088021755
100	0x3bb3e117	0.0054894793
101	0x3d79b11a	0.060959913
102	0x3e1fe56c	0.15614861
103	0x3e11be96	0.14232859
104	0xbd805ff9	-0.06268305
105	0x3d895c8e	0.067071065
106	0xbd079c15	-0.033107836
107	0x3e1131d2	0.14179161
108	0x3df2f0cb	0.11862334
109	0xbda13e22	-0.07873179
110	0x3e40e4d9	0.18837298
111	0x3d934d57	0.07192486
112	0xbda0b3fb	-0.078468286
113	0x3cf1b99a	0.029507447
114	0x3db9ab70	0.09065902
115	0xbabadd6f	-0.0014256666
116	0x3d12a2d6	0.035799824
117	0xbd1923e3	-0.03738774
118	0x3df7a270	0.12091529
119	0xbe8971ee	-0.26844734
120	0x3df9893e	0.1218438
121	0xbd948adb	-0.07253047
122	0x3cba79c9	0.02276315
123	0xbe43796f	-0.19089292
124	0x3da13036	0.07870524
125	0xbcfdc684	-0.030978449
126	0xbdb53f65	-0.08849982
127	0xbd5c7630	-0.05382365
128	0xbd945aa4	-0.07243851
129	0xbbea247c	-0.0071454626
130	0x3da58103	0.08081248
131	0x3d1724de	0.036900394
132	0xbe602084	-0.21887404
133	0xbe7185f4	-0.23586255
134	0x3d0cbde9	0.0343608
135	0x3e0a188b	0.13485925
136	0xbe03a7b0	-0.12856936
137	0x3e5a8358	0.21339166
138	0x3da15ec7	0.078794055
139	0xbc375963	-0.011190745
140	0x3dd95e2f	0.10613667
141	0xbd807543	-0.06272366
142	0x3cef0e74	0.029181696
143	0x3dfdbbe1	0.12389351
144	0x3d21ad50	0.039471924
145	0x3d6e78f4	0.05822082
146	0xbe94280f	-0.28936812
147	0xbc6c1265	-0.0144086825
148	0x3dfe2533	0.12409439
149	0x3c6900cd	0.014221382
150	0x3de21741	0.110395916
151	0xbef17aa0	-0.47163868
152	0xbe1a9d36	-0.15099034
153	0x3e0750d6	0.1321443
154	0x3d6f4024	0.05841078
155	0xbd69dcb1	-0.057095233
156	0xbca32cb2	-0.019918773
157	0xbe14938c	-0.1450941
158	0xbdc80be2	-0.097678915
159	0xbd8380b2	-0.06421031
160	0xbd41b85f	-0.04729497
161	0x3e2dd75c	0.16976684
162	0x3dde3c1e	0.1085131
163	0xbe2826ee	-0.164211
164	0x3df1f9c0	0.11815214
165	0x3d7d7f88	0.0618892
166	0x3d76e7d0	0.060279667
167	0x3de129c4	0.10994294
168	0xbe1a0641	-0.15041448
169	0x3d1137a7	0.035453465
170	0xbde1b2e4	-0.11020449
171	0xbea90b32	-0.33016354
172	0x3d812215	0.06305329
173	0xbc856bef	-0.016286818
174	0x3e17b027	0.1481329
175	0x3956b4f5	0.00020476042
176	0xbd80228b	-0.062565885
177	0xbc3ba1ca	-0.011452148
178	0xbd37555a	-0.044759132
179	0xbdd59536	-0.1042885
180	0xbd96b764	-0.07359198
181	0xbd146987	-0.03623345
182	0x3d0fe633	0.035131644
183	0x3d22fcca	0.03979186
184	0x3d973a79	0.073842
185	0xbb05794b	-0.0020366486
186	0xbc8aabe5	-0.016927669
187	0xbe36f27b	-0.17865936
188	0xbda96e90	-0.08273041
189	0xbd2b6f1c	-0.04185401
190	0xbe15d384	-0.14631468
191	0x3d1e8439	0.038700316
192	0xbb24c4f4	-0.0025141807
193	0x3e1b269e	0.1515145
194	0xbdf97b56	-0.121817276
195	0xbde3dc38	-0.11125988
196	0x3de2edfe	0.1108055
197	0xbdc2bd09	-0.09508712
198	0xbd61b76e	-0.055106573
199	0xbc8377eb	-0.016048392
200	0xbe1e9e74	-0.15490133
201	0xbd83d37a	-0.0643682
202	0x3de7b387	0.11313539
203	0x3cd48139	0.025940524
204	0xbbe0691d	-0.006848468
205	0x3d51c516	0.051213346
206	0xbda6ca8b	-0.08144101
207	0x3b91782a	0.0044393735
208	0xbd2680d6	-0.04065021
209	0xbd2f30a0	-0.04277098
210	0x3da9ae88	0.08285242
211	0x3dac1089	0.08401591
212	0x3d899515	0.06717888
213	0xbe2b9382	-0.16755489
214	0x3d58a149	0.05288819
215	0x3d5f929b	0.054583173
216	0xbb92a6e8	-0.004475463
217	0xbd9d6bcc	-0.07686576
218	0xbcd756b2	-0.026286457
219	0x3dbb7072	0.091523066
220	0x3d467a6f	0.048456606
221	0x3dd56c43	0.1042104
222	0x3cbea047	0.023269786
223	0x3df550dd	0.11978314
224	0x3d073d91	0.0330177
225	0x3d684086	0.05670216
226	0x3bdb03c6	0.0066837994
227	0xbdace049	-0.084412165
228	0x3c7adab0	0.015310928
229	0x3d4ef130	0.050522983
230	0x3a419d55	0.000738581
231	0x3dbaf323	0.09128406
232	0xbd5a1187	-0.05323937
233	0x3c1f41b2	0.009720253
234	0x3e0a7636	0.13521656
235	0x3ddf6846	0.109085605
236	0x3d8442f3	0.06458082
237	0x3dd37d51	0.103266366
238	0x3d42a62f	0.047521766
239	0xbd974c1d	-0.07387564
240	0x3d2d3fd1	0.04229719
241	0xbd979e76	-0.07403271
242	0xbcad08b0	-0.021122307
243	0xbdadd320	-0.084875345
244	0xbcf778f2	-0.030209038
245	0x3a9c6193	0.0011930935
246	0xbcc0f675	-0.02355502
247	0x3e2942c5	0.16529377
248	0x3c8b7bbf	0.01702678
249	0x3dccd368	0.1000126
250	0xbdb0c364	-0.08631018
251	0xbdd7e35d	-0.10541413
252	0x3d796200	0.060884476
253	0x3d2033ac	0.03911178
254	0xbdd30ce7	-0.10305195
255	0x3ca2796e	0.019833293

activation2 f4 [64]
0	0x3e3b0e4f	0.18267177
1	0xbc150910	-0.009096399
2	0x3e22fa1d	0.15915723
3	0x3e4e0b9f	0.2012162
4	0x3d299605	0.041402835
5	0x3e43951a	0.19099846
6	0x3d4a595f	0.049401637
7	0xbce3254b	-0.027727744
8	0x3c839447	0.016061915
9	0xbdbf8520	-0.093515635
10	0xbc6d3aac	-0.0144793205
11	0x3e313f42	0.17309287
12	0x3d8aae6d	0.0677155
13	0x3e5f0725	0.21780069
14	0x3e1fc1c1	0.15601255
15	0x3d910d3b	0.07082602
16	0x3dc2cd73	0.095118426
17	0x3dab739d	0.08371661
18	0x3e0cd22c	0.13752049
19	0x3e478a91	0.19486453
20	0x3ddc5cb8	0.10759872
21	0x3e0750fb	0.13214485
22	0xbd12eb61	-0.035869006
23	0xbd5b6400	-0.053562164
24	0x3e4756e9	0.19466747
25	0xbd2403b6	-0.0400426
26	0x3e47a1f2	0.19495371
27	0xbce61c99	-0.028089808
28	0x3c341a85	0.010992651
29	0x3cdcd2a5	0.026955912
30	0xbd68c3b7	-0.056827273
31	0x3db04419	0.086067386
32	0x3e70280b	0.23452775
33	0x3b52feff	0.0032195447
34	0x3d963850	0.073349595
35	0x3e382600	0.17983246
36	0x3c50fa95	0.012755056
37	0x3cf5ea7e	0.030019041
38	0x3d1b7ac7	0.037958886
39	0x3d450eef	0.048109945
40	0x3e0ab68e	0.13546202
41	0xbd773131	-0.060349647
42	0x3e833c3e	0.256319
43	0x3e1cd847	0.15316878
44	0x3b875dba	0.004131046
45	0x3cbe1412	0.02320293
46	0x3e048241	0.12940313
47	0x3d80f595	0.06296841
48	0x3c8eedc3	0.017447358
49	0x3d19dd49	0.03756455
50	0x3d315a0b	0.043298762
51	0x3ba4fd39	0.0050350693
52	0x3d7f45c8	0.062322408
53	0x3e5c6e34	0.21526414
54	0x3e41eb7a	0.18937483
55	0x3d62f2f9	0.055407498
56	0x3dfa5290	0.12222779
57	0x3dd69ce0	0.1047914
58	0x3e21c624	0.15798241
59	0x3e91e3eb	0.284942
60	0x3daf359b	0.08555146
61	0x3dfca730	0.12336576
62	0x3cb270f1	0.02178237
63	0x3ea9599a	0.33076173

layer2 f4 [64, 64]
0	0x3dbd8936	0.092546865
1	0x3e0cfd07	0.13768397
2	0x3e20650d	0.15663548
3	0xbd8098d9	-0.062791534
4	0x3d309b1b	0.04311667
5	0xbd5979cb	-0.053094666
6	0xbe443d63	-0.19164042
7	0x3d5e00ed	0.0542001
8	0x3d349d95	0.044095594
9	0x3c98b55b	0.018641165
10	0xbdebd751	-0.11515678
11	0x3daaec3e	0.08345841
12	0x3e1cea4c	0.15323752
13	0x3d8dac4e	0.0691763
14	0x3d20681f	0.039161798
15	0x3e1a6d9e	0.15080878
16	0x3c8cc769	0.01718493
17	0x3c0a0469	0.008423903
18	0xbcd82170	-0.026383132
19	0x3df3cfed	0.11904893
20	0x3dcf0a10	0.10109341
21	0xbcf8a4ba	-0.030351985
22	0xbd90bf9b	-0.07067796
23	0xbdd439d0	-0.10362589
24	0x3d0cc1e5	0.0343646
25	0xbdb64477	-0.088997774
26	0x3d709b47	0.058741834
27	0xbd87fe9f	-0.06640362
28	0x3e45a969	0.19302906
29	0xbd9b2d18	-0.0757696
30	0xbd54c0e2	-0.05194176
31	0x3d82da3b	0.063892804
32	0x3cf37e18	0.029723212
33	0x3e059573	0.13045292
34	0xbe864e83	-0.26231775
35	0x3e4ca215	0.19983704
36	0x3d78d48a	0.060749568
37	0x3e1bf754	0.15231067
38	0x3d8d87d2	0.06910671
39	0x3d91823c	0.07104918
40	0xbd1d7327	-0.038439896
41	0x3da82d48	0.08211762
42	0x3df58091	0.11987413
43	0x3ddd3cf5	0.10802642
44	0xbb9a7d33	-0.004714632
45	0x3dae90f2	0.0852374
46	0xbd9b65d4	-0.075877815
47	0x3dbc5508	0.09195906
48	0xbdf87ddc	-0.12133381
49	0x3de55f4c	0.11199817
50	0x3da67366	0.08127479
51	0x3d596650	0.05307609
52	0x3d6e81e7	0.058229353
53	0xbd910da2	-0.070826784
54	0xbbd32f05	-0.006444814
55	0x3de36b11	0.11104406
56	0xbd2fab03	-0.0428877
57	0x3dfbe62b	0.122997604
58	0xbb86e1cc	-0.0041162726
59	0xbd48b681	-0.049002174
60	0xbd8d1bac	-0.068900436
61	0xbd4ab8e3	-0.049492728
62	0x3dde3de1	0.10851646
63	0x3c4018b1	0.011724637
64	0xbd970dd6	-0.07375686
65	0xbd5ceec3	-0.05393864
66	0x3da44f69	0.08022959
67	0x3da08dbe	0.07839535
68	0xbc20fab6	-0.009825399
69	0x3c73f404	0.014889721
70	0xbebbe9c1	-0.36701778
71	0xbe0902dc	-0.13379997
72	0x3dcd3536	0.10019915
73	0xbe3c433d	-0.18385024
74	0xbcede9c3	-0.02904213
75	0x3cea8009	0.028625505
76	0xbcf79c74	-0.03022597
77	0xbd912c76	-0.070885584
78	0x3ccdf946	0.025143277
79	0x3e243680	0.16036415
80	0x3b762b04	0.003756226
81	0xbd7a48a2	-0.061104424
82	0xbc902086	-0.017593633
83	0x3e0d6bde	0.1381068
84	0x3e34fa03	0.17673497
85	0xbdc90a3b	-0.098164044
86	0xbdc87baf	-0.09789216
87	0x3dc6cf7c	0.09707543
88	0x3e479224	0.19489342
89	0x3dd86716	0.10566537
90	0xbd92faf6	-0.07176773
91	0x3db7022d	0.08935962
92	0x3dbf4844	0.093399554
93	0x3d9f818a	0.077883795
94	0xbd174e80	-0.036940098
95	0xbdcc5cca	-0.099786356
96	0xbdbd9f11	-0.09258855
97	0x3e2b8194	0.16748649
98	0xbeaeaa07	-0.34114096
99	0x3e378ac2	0.17924026
100	0x3d5c3ed1	0.053770844
101	0x3da02166	0.0781887
102	0x3e03b89f	0.12863396
103	0xbccf5640	-0.025309682
104	0xbd5e0f58	-0.05421385
105	0xbda1f1d1	-0.07907451
106	0x3d052f90	0.032516062
107	0xbe057d6b	-0.13036124
108	0x3defade1	0.11703087
109	0x3e0e96c9	0.13924707
110	0x3db885a7	0.09009867
111	0x3e25038a	0.16114631
112	0x3e8216f1	0.25408128
113	0x3d53a919	0.051674936
114	0x3cbfad2d	0.023398006
115	0x3bcc938a	0.006243174
116	0x3ceb8b01	0.028752806
117	0x3e42fdf5	0.1904219
118	0x3e2e2a37	0.17008291
119	0x3dbefdb1	0.093257315
120	0xbc8f7f97	-0.017516894
121	0xbcda5dac	-0.026655994
122	0x3d329faf	0.043609317
123	0x3ba5938e	0.0050529903
124	0xbbfccb1a	-0.0077146413
125	0x3e0c0c53	0.13676576
126	0x3d521b1c	0.051295385
127	0x3e93afa4	0.2884494
128	0x3cde9df8	0.027174935
129	0xbdaac5d3	-0.08338513
130	0x3d249400	0.040180206
131	0x3e02c694	0.12771064
132	0x3e187cd6	0.14891371
133	0xbd6249f9	-0.055246327
134	0x3e0a9d10	0.13536477
135	0xbdd1c663	-0.102429174
136	0x3d741ada	0.05959592
137	0xbdaecd8d	-0.085352995
138	0xbdddf3ba	-0.10837503
139	0x3b41b838	0.0029559266
140	0x3e14c0b2	0.14526632
141	0x3b6f6fe9	0.003653521
142	0x3daf49ad	0.085589744
143	0x3b905da8	0.004405696
144	0xbcd8d463	-0.026468461
145	0xbd04e74d	-0.032447148
146	0x3dbebe54	0.09313646
147	0x3da8f897	0.0825054
148	0xbd53883e	-0.051643603
149	0xbcfd1eda	-0.0308985
150	0x3d3e5f02	0.046477325
151	0x3db1d227	0.086826615
152	0x3e2a5413	0.16633634
153	0xbdd32e60	-0.1031158
154	0xbdfe3a15	-0.12413422
155	0x3cedaff9	0.029014574
156	0xbd5eb91a	-0.054375745
157	0x3d228025	0.03967299
158	0xbce1a7ec	-0.027545892
159	0xbe2423c1	-0.16029264
160	0x3d246313	0.040133547
161	0xbdc28612	-0.09498228
162	0x3e8a1b92	0.2697416
163	0x3c881181	0.016609909
164	0x3d6186e3	0.05506028
165	0xbd876996	-0.06611936
166	0xbc988675	-0.018618802
167	0xbda28553	-0.07935586
168	0x3d9b2040	0.075745106
169	0xbd44a2d2	-0.04800684
170	0xbae89326	-0.0017744049
171	0xbdc48659	-0.09595937
172	0xbd16b03b	-0.03678916
173	0xbd978257	-0.07397907
174	0xbd1a739c	-0.03770791
175	0xbdddec55	-0.108360924
176	0x3c08c255	0.008347114
177	0xbd9b4f13	-0.075834416
178	0xbdec3731	-0.115339644
179	0x3cb80e57	0.022467775
180	0x3e080dc1	0.13286497
181	0xbcf01fc1	-0.029312016
182	0x3c883b1c	0.016629748
183	0x3c5cd913	0.013479489
184	0x3e01534d	0.12629433
185	0xbd86016e	-0.065432414
186	0x3a341a19	0.0006870344
187	0xbdc1f42f	-0.094704024
188	0xbec30f35	-0.3809754
189	0xbe0be7f2	-0.13662699
190	0xbdb2a189	-0.08722217
191	0xbd483397	-0.048877325
192	0x3df9bacf	0.12193834
193	0x3d84863e	0.06470917
194	0x3d3fe910	0.046853125
195	0xbc60f833	-0.01373105
196	0x3bbc195d	0.005740328
197	0xbda6a70a	-0.08137329
198	0xbd8a43b3	-0.06751194
199	0xbdd54233	-0.10413017
200	0xbd65aa9c	-0.05607091
201	0x3db9c944	0.090715915
202	0x3a019dbd	0.00049444643
203	0x3e19ed3d	0.15031905
204	0x3e28fdd7	0.16503082
205	0x3d86835a	0.06568022
206	0x3dcacbbd	0.09902141
207	0x3d64565a	0.055746414
208	0x3d5bd991	0.053674284
209	0x3dca1193	0.09866633
210	0x3db0d8b2	0.08635081
211	0x3d122abe	0.035685293
212	0x3d445475	0.047932107
213	0xbdfb7837	-0.122787885
214	0x3dd21dfe	0.10259627
215	0xbd5b3283	-0.05351497
216	0x3d8a5d2a	0.06756051
217	0x3daeb13e	0.085299
218	0x3d11b90f	0.035576876
219	0xbc2b6bf4	-0.01046275
220	0x3bec100f	0.007204063
221	0xbdd0798e	-0.10179435
222	0xbd5ff7a5	-0.05467953
223	0xbd879764	-0.06620672
224	0xbd2fdad2	-0.042933293
225	0x3d93030d	0.07178316
226	0xbe74d00a	-0.23907486
227	0x3d78c970	0.06073898
228	0xbdf9c033	-0.12194862
229	0x3d5303dd	0.051517356
230	0x3e0422cd	0.129039
231	0xbd37de7f	-0.044889923
232	0x3dd41da1	0.10357214
233	0xbdba7021	-0.09103418
234	0xbdb1abcf	-0.08675348
235	0x3df87019	0.12130756
236	0x3d4c826d	0.04992907
237	0x3df0f6e1	0.117658384
238	0x3c47af8a	0.012187848
239	0x3d938965	0.0720394
240	0x3e549504	0.2075997
241	0x3cf60504	0.030031689
242	0x3dff06eb	0.124524914
243	0xbd8ae2a9	-0.06781513
244	0xbd2d2ee1	-0.042281035
245	0xbabdc19b	-0.0014477255
246	0xbcc1eadb	-0.023671558
247	0x3e0e8c7c	0.13920778
248	0x3d6b963a	0.057516314
249	0xbc58c7fb	-0.013231273
250	0x3dcb5789	0.099288054
251	0x3cffb670	0.031214923
252	0x3d872e32	0.06600608
253	0xbd53aa2b	-0.051675957
254	0xbcf8a189	-0.030350463
255	0x3e05e83b	0.1307687

activation3 f4 [64]
0	0x3e3316e1	0.17489196
1	0x3decb454	0.11557832
2	0x3de7a29f	0.113103144
3	0xbcff8d64	-0.03119535
4	0xbd7175d6	-0.058950268
5	0xbd5c2257	-0.053743687
6	0x3d9f9724	0.077925
7	0xbd8d9893	-0.06913867
8	0x3d4bba8c	0.04973845
9	0x3d806cfb	0.062707864
10	0xba522783	-0.0008016752
11	0xbd15258a	-0.036412753
12	0x3e348f74	0.17632848
13	0x3cec597d	0.028851265
14	0x3d3cf606	0.046133064
15	0x3d03567b	0.032064896
16	0x3e4ec721	0.20193149
17	0x3d3f2bd8	0.046672672
18	0x3e1de02a	0.15417543
19	0x3cb210b0	0.021736473
20	0x3c7e08e4	0.015505049
21	0x3d4d2843	0.050087225
22	0xbd15433a	-0.036441065
23	0x3d8d8ef8	0.06912035
24	0xbd684151	-0.056702916
25	0x3ca9c92d	0.02072581
26	0xbd6791db	-0.056535583
27	0xbd9b9d57	-0.075983696
28	0x3d5d3ff7	0.05401608
29	0xbc5ac4cd	-0.013352585
30	0x3e05478d	0.13015576
31	0x3e0bd28b	0.13654535
32	0x3d89b741	0.06724406
33	0xbce7ec50	-0.028310925
34	0xbd5f5c4e	-0.054531388
35	0x3bd4f135	0.0064984807
36	0x3d9601fd	0.07324598
37	0x3e756aef	0.23966573
38	0x3d6b511e	0.057450406
39	0xbd02093c	-0.031747088
40	0xbcc0b4e2	-0.023523752
41	0x3d0df496	0.034657083
42	0x3e0322ff	0.12806319
43	0xbd8f8020	-0.0700686
44	0x3e18a245	0.14905651
45	0xbcc410bd	-0.023933763
46	0x3ddb00bb	0.10693499
47	0xbc9f7e97	-0.019469542
48	0x3cee46c6	0.029086482
49	0x3dafc600	0.085826874
50	0x3e0af9f8	0.13571918
51	0x3d8a2a8a	0.06746395
52	0x3dd9d139	0.10635609
53	0xbdcade60	-0.09905696
54	0xba94fab4	-0.0011366219
55	0x3e28ae70	0.16472793
56	0x3c1da0bd	0.0096208425
57	0x3d92e200	0.07172012
58	0xbc034cb4	-0.008013893
59	0xbd6fba89	-0.058527503
60	0x3c2742ce	0.010208799
61	0x3e7dbd80	0.2477932
62	0xbe1c2b45	-0.15250881
63	0xbd3ad736	-0.045615397

layer3 f4 [64, 64]
0	0xbc829d33	-0.015944099
1	0xbdeb76ea	-0.114972904
2	0x3db564a9	0.0885709
3	0x3cec886a	0.028873641
4	0xbd7c4f20	-0.061598897
5	0xbe095140	-0.134099
6	0x3dcf4423	0.10120418
7	0xbdc14113	-0.0943624
8	0xbddb8399	-0.1071846
9	0x3d28b944	0.041192308
10	0xbd1b9d2e	-0.037991695
11	0xbdd79d89	-0.10528094
12	0x3ccf9081	0.02533746
13	0x3dae4035	0.0850834
14	0x3d13b47e	0.036060803
15	0xbe0843fe	-0.13307187
16	0x3bba2bcf	0.005681492
17	0xbaeab09e	-0.0017905419
18	0xbdf772c5	-0.120824374
19	0x3de05dba	0.10955377
20	0x3d10f300	0.035387993
21	0x3d2cdfa4	0.042205468
22	0x3cab04b6	0.02087627
23	0xbdc30206	-0.0952187
24	0xbd986ed1	-0.074430116
25	0xbdaa915f	-0.083285086
26	0x3db0d7eb	0.08634933
27	0xbcaf0323	-0.0213638
28	0xbcdbab6e	-0.026815142
29	0x3d07ac4c	0.0331233
30	0x3d89e498	0.06733054
31	0xbd40f7cc	-0.047111318
32	0x3ce6eddf	0.028189598
33	0x3d9b599f	0.07585453
34	0xbcc398be	-0.023876544
35	0x3d74d288	0.05977109
36	0x3dc0e659	0.09418935
37	0x3da9cac0	0.082906246
38	0x3dd5b915	0.10435692
39	0xbc9ebcb4	-0.01937709
40	0xbd2fe321	-0.042941216
41	0x3dde24be	0.10846852
42	0xbdafcebb	-0.085843526
43	0xbd5fb07a	-0.05461166
44	0xbd22c327	-0.039736893
45	0xbe02cc41	-0.12773229
46	0x3df27964	0.1183956
47	0xbdf3dc66	-0.11907272
48	0xbc998a66	-0.018742751
49	0x3d878117	0.06616419
50	0x3cb901dd	0.022583896
51	0xbc92facc	-0.017941855
52	0xbdc10836	-0.09425394
53	0xbb9db545	-0.004812869
54	0xbd14e890	-0.0363546
55	0xbcc8c85f	-0.024509607
56	0xbdb64356	-0.08899562
57	0xbb812720	-0.0039414316
58	0xbdfd66ec	-0.123731464
59	0x3d6cc5f1	0.05780596
60	0x3d6b2f21	0.057417993
61	0xbd99fc99	-0.07518882
62	0xbd316ba9	-0.043315563
63	0x3cfcaa4d	0.030842924
64	0x3c9cee6d	0.019156659
65	0xbdca040e	-0.098640546
66	0x3c5b25b8	0.013375692
67	0x3c995208	0.018715873
68	0xbd8d0f52	-0.06887688
69	0x3d24d17d	0.040238846
70	0x3c415eb4	0.011802364
71	0xbd95ce27	-0.07314711
72	0x3d7b84ee	0.06140607
73	0xbc6027e5	-0.013681387
74	0x3dc43727	0.09580832
75	0xbdd8a49d	-0.105782725
76	0xbc20162a	-0.009770909
77	0xbe124055	-0.14282353
78	0xbe007153	-0.1254323
79	0xbddd1614	-0.10795227
80	0x3acdedd4	0.0015711137
81	0x3de47b85	0.11156372
82	0x3dab6874	0.08369532
83	0xbcb3130e	-0.021859672
84	0x3d1ba32f	0.03799742
85	0xbddbd795	-0.107344784
86	0xbdef2328	-0.116766274
87	0xbe16c763	-0.14724497
88	0x3d04b973	0.03240342
89	0xbd8aabf4	-0.06771079
90	0x3d7055b3	0.05867548
91	0xbd086106	-0.033295654
92	0x3dbd1841	0.09233142
93	0x3d3456c2	0.04402805
94	0xbd9fa639	-0.07795376
95	0xbd0da1b0	-0.034578025
96	0xbdea0f28	-0.11428672
97	0x3d5e5843	0.05428339
98	0xbd879399	-0.06619949
99	0xbe05cdcc	-0.13066787
100	0xbdd843ef	-0.10559832
101	0x3d19de89	0.03756574
102	0xbd48d653	-0.04903252
103	0xbd136d1f	-0.035992738
104	0xbe080a9d	-0.13285299
105	0xbdb36cb1	-0.087609656
106	0x3ca66b06	0.020314705
107	0x3c52de34	0.01287036
108	0xbdc63dc0	-0.09679747
109	0x3d9217e8	0.07133466
110	0x3da7448a	0.0816737
111	0x3cb7c7c6	0.022434127
112	0x3d000660	0.03125608
113	0xbd66f2ea	-0.056384005
114	0x3d9b5724	0.0758498
115	0x3d2b52bc	0.04182695
116	0x3d86abd3	0.065757416
117	0xbd961c67	-0.07329636
118	0xbbfaee36	-0.0076577915
119	0xbd5d248e	-0.05398994
120	0xbdc7b0df	-0.09750532
121	0x3d97785f	0.07396006
122	0xbdc47334	-0.09592286
123	0xbc7485ad	-0.014924449
124	0xbde78c27	-0.11306029
125	0xbd8c2727	-0.06843405
126	0x3d87eb72	0.066367045
127	0x3d022871	0.03177685
128	0xbda343b8	-0.07971901
129	0xbdc167f8	-0.094436586
130	0xbc0dd458	-0.008656584
131	0x3d842104	0.0645161
132	0xbd7d5538	-0.06184885
133	0xbd59296a	-0.05301801
134	0xbdeb81d4	-0.11499372
135	0x3d84faf0	0.06493175
136	0x3d0a7940	0.03380704
137	0xbc47d58a	-0.012196908
138	0x3d4c9b3e	0.049952738
139	0x3d93f36f	0.07224166
140	0x3dbdc189	0.092654295
141	0x3d9d4744	0.076796085
142	0xbccad390	-0.024759084
143	0xbcb3c994	-0.021946706
144	0x3dd32f2c	0.10311732
145	0x3d719f3a	0.05898974
146	0xbd2dc37a	-0.04242275
147	0x3d82a764	0.063795835
148	0xbde91635	-0.11381189
149	0xbdfeb8d4	-0.12437597
150	0xbcaf2569	-0.021380143
151	0x3de003ea	0.109382465
152	0x3d1f2fab	0.03886382
153	0x3d5e70c6	0.054306768
154	0xbd5cec9e	-0.053936593
155	0xbddea36c	-0.10871014
156	0x3db273dc	0.08713505
157	0xbbd53112	-0.006506094
158	0xbdc4cc95	-0.096093334
159	0xbd9dfd5f	-0.07714342
160	0x3d50213e	0.050812952
161	0x3cae66f0	0.021289319
162	0x3d19cce6	0.037548922
163	0xbd78a964	-0.06070842
164	0xbc7f63e7	-0.015587783
165	0xbd8bcc45	-0.06826071
166	0xbe02204c	-0.12707633
167	0x3dcd55d6	0.100261375
168	0xbdf79008	-0.12088019
169	0xbdb65ea6	-0.089047715
170	0x3c874347	0.016511573
171	0xbc8ea515	-0.017412702
172	0x3dc937b3	0.09825077
173	0x3d15d0fc	0.036576256
174	0xbdd8368e	-0.105572805
175	0xbdf722b4	-0.12067166
176	0xbdd3f604	-0.10349658
177	0xbcc4d7b3	-0.024028635
178	0xbdaf8b73	-0.0857152
179	0xbd87fa59	-0.06639547
180	0x3c0ed2e9	0.008717277
181	0xbddaf957	-0.10692089
182	0xbda83e89	-0.08215053
183	0xbde6dd84	-0.112727195
184	0x3da6ff1d	0.08154128
185	0x3c246070	0.010032758
186	0x3d879953	0.06621041
187	0x3d85c1e5	0.06531123
188	0x3d82fbdf	0.06395697
189	0x3dc714ee	0.09720789
190	0xbd95eb00	-0.07320213
191	0x3d67431f	0.056460496
192	0x3e0cddd9	0.13756503
193	0x3d6463e9	0.055759344
194	0xbb98f4cf	-0.0046678553
195	0x3d835f27	0.06414633
196	0xbde9d6b5	-0.11417905
197	0xbc47bd66	-0.012191152
198	0x3e1751e2	0.1477733
199	0xbe2cef04	-0.16888052
200	0x3d912915	0.07087914
201	0x3e115200	0.14191437
202	0xbd11edd6	-0.03562721
203	0x3dfcd4dc	0.12345287
204	0xbc74aee7	-0.014934278
205	0x3defedf1	0.117153056
206	0x3db61a84	0.08891776
207	0xbd8277b5	-0.063704886
208	0x3e05683f	0.13028048
209	0x3dc441b4	0.095828444
210	0x3d2c3940	0.042046785
211	0x3d973223	0.0738261
212	0xbd1200c3	-0.035645258
213	0x3e1cabe0	0.1529994
214	0xbdfebd40	-0.1243844
215	0x3dd8e430	0.10590398
216	0xbd23fd9b	-0.04003678
217	0x3d0ede8d	0.03488021
218	0x3d99de43	0.07513096
219	0xbd46fac4	-0.048578992
220	0x3e061ef5	0.13097747
221	0xbd672585	-0.056432266
222	0xbd077205	-0.033067722
223	0x3e0a7ddd	0.13524576
224	0x3d2ac32e	0.041690044
225	0x3dfc9cb1	0.12334574
226	0x3d33eaca	0.043925084
227	0x3d49e7c0	0.04929328
228	0xbe8535c2	-0.26017576
229	0x3da759af	0.08171403
230	0xbd9ec265	-0.077519216
231	0xbf124af3	-0.57145613
232	0x3cd64f82	0.02616096
233	0x3e181478	0.14851558
234	0x3d7832e5	0.06059541
235	0xbcf70a93	-0.03015641
236	0xbd25723b	-0.04039214
237	0x3d6511ec	0.055925295
238	0xbdc0cad4	-0.094136864
239	0x3e02bc58	0.1276716
240	0x3e04035d	0.12891908
241	0xbd1124b0	-0.03543538
242	0xbc4d9093	-0.012546676
243	0x3e13c46d	0.14430399
244	0x3d09ae28	0.033613354
245	0x3dd986b7	0.10621398
246	0x3e096574	0.13417608
247	0x3d039f3d	0.032134283
248	0x3de7c866	0.1131752
249	0xbdcd6001	-0.10028077
250	0x3e39382c	0.18087834
251	0x3e439cb5	0.19102748
252	0x389704dd	7.201147e-05
253	0xbd07582e	-0.03304308
254	0x3c1fc644	0.00975186
255	0xbd6870cb	-0.056748193

activation4 f4 [64]
0	0x3d33e9fb	0.043924313
1	0xbc4e0be0	-0.012576073
2	0x3d594147	0.05304077
3	0xbd01cb7d	-0.031688202
4	0x3e1be178	0.15222728
5	0xbcd13d23	-0.025541848
6	0xbd1d3274	-0.038378194
7	0x3da52858	0.080643356
8	0x3d7da5be	0.061925642
9	0xbb4d4d94	-0.0031326758
10	0x3dc87516	0.09787957
11	0x3e04c496	0.12965617
12	0xbce22d62	-0.02760953
13	0x3dfea282	0.1243334
14	0xbd44383c	-0.04790519
15	0x3dcf59a7	0.10124522
16	0xbdc5451a	-0.09632321
17	0x3dbd5d71	0.09246338
18	0xbd375ab8	-0.04476425
19	0xbdedc7bf	-0.11610364
20	0x3c064f79	0.008197659
21	0xbdb09f84	-0.08624175
22	0x3e0cd579	0.13753308
23	0x3db2d7e0	0.08732581
24	0xbc0afba3	-0.008482846
25	0x3d2dbf8e	0.04241901
26	0xbd62e369	-0.055392656
27	0xbd0a1b36	-0.033717357
28	0x3c8a8445	0.016908774
29	0x3e0da133	0.13831024
30	0xbd2d50cb	-0.04231338
31	0xbdb3f139	-0.08786244
32	0x3e006a02	0.12540439
33	0x3d4302e9	0.047610197
34	0xbd3e1ac3	-0.04641224
35	0x3db5394c	0.08848819
36	0x3d930ce5	0.07180194
37	0x3dafdd1c	0.08587095
38	0xbdf316ef	-0.118696086
39	0xbbe62ee8	-0.0070246346
40	0xbbf9fa66	-0.007628727
41	0xbd9222f2	-0.071355715
42	0x3d0ca623	0.034338128
43	0xbd7fadc5	-0.06242158
44	0x3d70409f	0.058655377
45	0xbd8c1473	-0.06839838
46	0x3e154255	0.14576085
47	0x3dd9838e	0.10620795
48	0xbdc4a8b6	-0.096024916
49	0x3c7d0c3c	0.015444811
50	0x3dd607f6	0.10450737
51	0x3d3d2a55	0.04618295
52	0x3d9691d9	0.07352037
53	0xbe0b9791	-0.13632037
54	0x3dbaa4c5	0.091134585
55	0x3ddb2250	0.10699904
56	0xbd8fce46	-0.070217654
57	0x3cdca574	0.026934363
58	0x3e23b74f	0.15987895
59	0xbe14cf7b	-0.14532273
60	0xba2d4781	-0.0006610081
61	0xbda17219	-0.078830905
62	0xbdc39354	-0.09549585
63	0x3e001fbe	0.12512109

layer4 f4 [9, 64]
0	0x3d5ecf33	0.05439682
1	0xbd367bbf	-0.044551607
2	0xbd4a50b5	-0.049393374
3	0xbdceeb80	-0.10103512
4	0xbcb480c5	-0.022034058
5	0xbdf98d9a	-0.121852115
6	0xbe4c3728	-0.19942915
7	0xbe589133	-0.21149139
8	0xbdcd9e7c	-0.10039994
9	0x3db0dd58	0.08635968
10	0xbd39fdbd	-0.045408
11	0x3d5f33f4	0.054492906
12	0xbe164416	-0.1467441
13	0x3dcf6466	0.10126571
14	0x3d6fd3b3	0.0585515
15	0x3d21a914	0.039467886
16	0xbe09e352	-0.13465622
17	0x3d7ffb40	0.06249547
18	0xbdd0049e	-0.10157131
19	0x3d41170f	0.04714113
20	0xbd87e277	-0.066349916
21	0x3d938e6e	0.07204901
22	0x3d1acb1c	0.037791356
23	0x3df62588	0.12018877
24	0xb927a89c	-0.00015989173
25	0xbdc81a44	-0.09770635
26	0xbc1779df	-0.009245365
27	0x3dcb5c16	0.099296734
28	0x3d56dc2e	0.052456073
29	0x3e8bcd55	0.27305093
30	0xbdf68d7b	-0.12038704
31	0xbdc0f91b	-0.09422513
32	0x3d4aae74	0.049482778
33	0xbd26c14c	-0.040711686
34	0xbd526f42	-0.051375635
35	0xbdc43a8d	-0.0958148
36	0x3ec7cfff	0.39025876
37	0x3e783736	0.24239811
38	0x3e2c1384	0.1680432
39	0xbdd7e576	-0.10541813
40	0x3da11c1b	0.07866689
41	0xbdb326ed	-0.08747659
42	0x3d989885	0.07450966
43	0xbd817dcf	-0.06322824
44	0xbd4f739d	-0.050647367
45	0xbbf7e93f	-0.007565647
46	0x3df30b33	0.118673705
47	0x3d4406b4	0.047857955
48	0x3df7a192	0.12091364
49	0x3d5f64df	0.054539558
50	0x3da19524	0.078897744
51	0xbe5aa21e	-0.21350905
52	0xbd0e9ec2	-0.034819372
53	0xbebd4d35	-0.36972967
54	0x3e32b7a6	0.17452869
55	0x3dc5f483	0.096657775
56	0xbde77042	-0.11300708
57	0xbca965ba	-0.02067839
58	0x3c73d9ce	0.014883472
59	0xbd40a705	-0.047034282
60	0xbd870755	-0.06593195
61	0xbe01b3f1	-0.12666298
62	0xbd47650a	-0.048680343
63	0x3d5241a8	0.051332146
64	0xb4cc2698	-3.8026042e-07
65	0xbdb022c3	-0.0860038
66	0xbd34a1c9	-0.044099603
67	0xbd3f2478	-0.04666564
68	0xbdca6e25	-0.0988429
69	0xbd691d1c	-0.056912526
70	0xbd57305c	-0.052536353
71	0xbd23a91d	-0.0399562
72	0x3d9c01db	0.076175414
73	0x3da0b6ed	0.0784739
74	0x3daa3126	0.083101556
75	0x3dba0579	0.09083075
76	0xbddc0a16	-0.10744111
77	0xbbe8de50	-0.00710658
78	0xbd594b49	-0.053050313
79	0x3d43d3fc	0.047809586
80	0xbeb4f7e6	-0.35345381
81	0xbdae0122	-0.0849631
82	0x3d7b7b44	0.061396852
83	0x3da23119	0.07919521
84	0x3d6b1be6	0.057399653
85	0xbd83c7f0	-0.064346194
86	0x3d25a036	0.040435992
87	0x3eb63337	0.3558595
88	0x3e3498ef	0.17636465
89	0xbdfef72f	-0.1244949
90	0x3e71088a	0.23538414
91	0x3c75846b	0.014985184
92	0xbd457ba0	-0.0482136
93	0x3eac0bc3	0.33602723
94	0x3cba3b8d	0.022733474
95	0x3d856929	0.06514198
96	0xbcad5076	-0.02115653
97	0xbde7b1f6	-0.1131324
98	0xbe90a6a5	-0.2825214
99	0x3c17f1f7	0.0092739975
100	0x3ecc0b7a	0.39852506
101	0x3e335616	0.17513308
102	0x3e4b0498	0.19825971
103	0xbd80ba0e	-0.06285487
104	0xbdf21db8	-0.11822075
105	0xbd142454	-0.036167458
106	0x3dc57e2b	0.09643205
107	0x3dba5d19	0.09099788
108	0xbe74a8d9	-0.23892535
109	0x3e129081	0.14312936
110	0x3d40437b	0.046939354
111	0xbd323d27	-0.04351535
112	0xbd5a39f4	-0.053277925
113	0x3bcf2329	0.00632133
114	0x3d99e7c4	0.07514909
115	0xbdae9ed1	-0.085263856
116	0xbdb5ed2f	-0.0888313
117	0x3ba4bba4	0.0050272513
118	0x3d1011b2	0.035173126
119	0x3d576bd4	0.052593067
120	0x3d94d806	0.07267766
121	0xbdf2615a	-0.118349746
122	0xbd5897db	-0.052879196
123	0x3dcea49c	0.100899905
124	0xbeeba75b	-0.4602612
125	0x3de8324a	0.11337717
126	0x3dcb7567	0.09934502
127	0x3d5d597c	0.054040417
128	0xbd032680	-0.03201914
129	0x3bdc75ec	0.0067279246
130	0x3d87970e	0.06620608
131	0xbd027866	-0.031853102
132	0x3e85a151	0.26099637
133	0xbc72de1e	-0.014823465
134	0x3dc88d32	0.09792556
135	0xbe366dfc	-0.17815393
136	0xbde6d3ed	-0.112708904
137	0x3d1ae4ff	0.037816044
138	0xbde3c567	-0.11121636
139	0x3dd9c770	0.10633743
140	0xbe133443	-0.14375405
141	0x3d3dc189	0.046327148
142	0x3df36acb	0.118856035
143	0xbe0d0846	-0.13772687
144	0x3d473d20	0.048642278
145	0xbe412dd6	-0.18865141
146	0x3d8d6fa8	0.06906062
147	0x3d87c0c7	0.06628566
148	0xbce686d0	-0.028140455
149	0xbdd9b800	-0.10630798
150	0x3d70fed7	0.058836784
151	0x3dd5a1a5	0.10431222
152	0xbc0a3f83	-0.008437994
153	0xba94f81d	-0.0011365447
154	0x3df4ccc6	0.1195312
155	0xbcd61216	-0.02613167
156	0xbe145bb7	-0.14488111
157	0x3f2eec54	0.6832936
158	0x3ca50cda	0.02014773
159	0x3dc52607	0.09626394
160	0x3d94b1fc	0.0726051
161	0xbd665ece	-0.056242757
162	0xbe488984	-0.19583708
163	0x3e09c2d3	0.13453226
164	0x3ebf543d	0.37368956
165	0x3e0c32b9	0.13691224
166	0x3e469253	0.19391756
167	0xbe49389f	-0.19650505
168	0xbe320547	-0.17384826
169	0x3dc726bd	0.097241856
170	0x3dcd14cf	0.100137345
171	0x3ceb25b0	0.028704494
172	0xbe8528c0	-0.26007652
173	0xbc84e73b	-0.01622354
174	0x3d81d75c	0.06339905
175	0x3e03c42c	0.12867802
176	0xbca38368	-0.01996012
177	0x3c681b2d	0.014166635
178	0x3dd614aa	0.1045316
179	0xbeb6f7fc	-0.35736072
180	0x3e701736	0.23446354
181	0xbec8a58e	-0.39188808
182	0x3e733a45	0.23752697
183	0x3ec87dc5	0.39158455
184	0x3e125b32	0.14292601
185	0xbd00546e	-0.03133052
186	0xbd637c25	-0.055538315
187	0xbe60c716	-0.21950945
188	0xbf02e0ab	-0.51124066
189	0x3dec9de6	0.11553554
190	0xbda3efbe	-0.080047116
191	0x3e77fa0a	0.24216476
192	0x3cb2a8b9	0.021808969
193	0xbd0e4acc	-0.0347393
194	0x3dc98412	0.098396435
195	0xbe3fcf31	-0.18731381
196	0xbd3abbf0	-0.045589387
197	0x3f62652e	0.8843564
198	0xbe78d65a	-0.24300519
199	0xbe806fcc	-0.25085294
200	0xbe9c5ac8	-0.3053801
201	0xbd83324b	-0.06406077
202	0xbec1e0a5	-0.37866703
203	0xbe4de11b	-0.20105402
204	0xbdb84f9d	-0.0899956
205	0xbc8bfb52	-0.017087612
206	0xbc6a81bd	-0.014313159
207	0xbebdda6e	-0.3708071
208	0x3f78c966	0.9718231
209	0xbcd599c2	-0.026074294
210	0xbcedcc5e	-0.029028114
211	0x3ca7c3a4	0.02047903
212	0x3d288d40	0.04115033
213	0x3db811d4	0.089877754
214	0xbe4719a8	-0.19443381
215	0x3ef5ebc4	0.48031437
216	0xbe96a853	-0.29425296
217	0xbdb6d84a	-0.089279726
218	0xbf43f0ff	-0.76539606
219	0x3db5075c	0.08839294
220	0xbeac9608	-0.33708215
221	0x3f2b78ef	0.66981405
222	0xbef17c2f	-0.47165057
223	0x3db69c2a	0.08916505
224	0xbd0f777c	-0.03502606
225	0xbc80b2c1	-0.015710237
226	0x3f92b445	1.1461264
227	0xbe304668	-0.17214358
228	0x3f66aabe	0.9010428
229	0xbe8d00ee	-0.27539772
230	0xbdd3413b	-0.10315176
231	0x3e22607a	0.15857115
232	0xbda6404b	-0.08117732
233	0xbe53bde2	-0.20677903
234	0xbd6f4ca4	-0.0584227
235	0x3dfaa124	0.122377664
236	0x3faabb37	1.3338383
237	0xbcc044ae	-0.023470249
238	0xbd67488e	-0.056465678
239	0xbdcc4862	-0.099747434
240	0xbce11a18	-0.027478263
241	0xbe9df438	-0.30850387
242	0xbdebecb9	-0.11519761
243	0xbf48c092	-0.7841884
244	0xbed8eb1e	-0.4236688
245	0x3e809667	0.25114748
246	0xbd844e5c	-0.06460258
247	0xbf0d9c7c	-0.553169
248	0x3efc1df0	0.4924159
249	0x3db9e9e4	0.09077814
250	0xbe94412d	-0.28955975
251	0x3f32898f	0.6974115
252	0xbeeec42b	-0.4663404
253	0xbce93bd1	-0.028470905
254	0xbe927aa1	-0.28609183
255	0xbe7a4bf3	-0.24443035

model.8.bias f4 [9]
0	0x3e329b55	0.17442067
1	0x3da8ba79	0.08238692
2	0x3e0a19ba	0.13486376
3	0xbdf940d7	-0.1217057
4	0xbe321f06	-0.17394647
5	0xbed9c7a7	-0.42535135
6	0x3da87d6c	0.08227047
7	0xbb963887	-0.0045843753
8	0xbe02d3e0	-0.12776136
